model.tflite (tflite, 14684 bytes, 8 tensors)

arith.constant f4 [3, 16]
00000000: a6c8 dd3c 2c88 fe3d d7b0 813d cc38 fdbd
00000010: 8619 03bd 1567 c2bd 8b38 713c a866 4c3e
00000020: 96a9 243e 9ce7 873e 2111 023e 0065 e0bc
00000030: 2809 c33d cf0f dcbe bf70 c1bd e55f 05be
00000040: e408 06be 68e0 8b3d 812c 1e3e 771e f9bd
00000050: 5039 edbc 8789 69b9 9c31 433e 7b73 083e
00000060: 625b ac3d 2eef bd3e f185 81bd 979c 143e
00000070: 3dce 3d3e d368 e2be 40c4 533d 35a0 5abd
00000080: fc06 c43c db94 2b3e 1086 f0bb 407d 20be
00000090: 5c07 74bd 0c3b 17bd 2e27 523e 43bb 493e
000000a0: 47cd 3d3c 7e11 b63e 41b2 83bd 710a 9ebc
000000b0: d3ba 6b3e 3fe9 b5be 2aa5 36bd 03f5 a6bc
0.027073216 0.124283165 0.06332558 -0.12364349 -0.032006763 -0.094923176 0.014722954 0.19961035
0.16080317 0.2654389 0.12701847 -0.02739191 0.09523231 -0.4298081 -0.09445333 -0.13024862
-0.13089329 0.068299115 0.15446664 -0.12164014 -0.028957993 -0.00022271845 0.19061893 0.13325302
0.084158674 0.37096542 -0.063243754 0.1451286 0.18535705 -0.442206 0.05170083 -0.05337544
0.023929112 0.16756003 -0.0073402002 -0.15672779 -0.05957733 -0.036921546 0.20522758 0.19700341
0.011584586 0.3556022 -0.064304836 -0.019292088 0.23020487 -0.35529515 -0.044591106 -0.020380503

arith.constant1 f4 [3]
00000000: 6156 60be 268a 0dbf 00fc bfbe
-0.21907951 -0.5528892 -0.37496948

arith.constant2 f4 [16, 32]
00000000: 8f67 83be 089b f8be f30b 5d3e ffa2 183f
00000010: fa76 b43e f652 363f 5536 27be 437a cdbe
00000020: e4e5 9fbe 6dec 153e d991 83be ee42 b6be
00000030: aef8 52bf 4565 eebe ea19 04bf e605 553e
00000040: 48e0 263e 1f04 f739 8788 0bbf 70f0 593e
00000050: 9a8d ba3e 7425 763e aeea b2be 8f8f 6fbe
00000060: ee9e 8bbe 63f4 4dbe 5456 0abf 6988 e03e
00000070: b274 b73d 6a27 a43e d189 ffbd de8a 073f
00000080: 7feb 243e 8593 cebd daeb 5d3e ef5e 18bf
00000090: 2b1a 803e 3b94 a63d 3e96 da3e d6b8 f8be
000000a0: 9779 2c3e be91 80bd 3429 163e 6a84 c43c
000000b0: 06c3 3ebf e2b6 f9be df7e 803e 5c87 0f3f
000000c0: af4b cebe 716d 99be 9307 0ebf 7827 d4bc
000000d0: 93e4 003e fcc2 43bf cf36 133e 88cb 3dbe
000000e0: 2b9a aa3d 151e 933e d14a 23bf a2cb e3be
000000f0: d6e2 6cbe 7424 e1be c661 58be 0901 17bf
00000100: f8b0 3b3e 9200 d13e f840 e83b 51de 04bf
00000110: 0a25 ffbb ea2e 833e 89c3 223f 4cb1 b93e
00000120: 1fdc cdbc 0884 bebd c4eb febe 3af4 3b3e
00000130: 4d27 883e 7238 2f3e 4bc5 99bd 2261 873e
00000140: ef37 e23e 9214 133f f5b1 c8be a041 6b3e
00000150: 4b9a 06bf 11ad 08bd e432 11bf 6091 e73e
00000160: 5190 923e abf7 89bd f0be f83e 2164 a1bd
00000170: d623 6a3d 8c77 243e aee3 65be 16f7 203f
00000180: 15dd 18bf 4b85 4bbe 6cba a43e 3a4f b0bd
00000190: ca21 3d3e 39ec e33d 1000 193f 5ece 09be
000001a0: c25a 463c 5ba1 bebe a5ca 7a3e c1be 083f
000001b0: 6ff2 273e 349c 9cbe 4d9f fabe fabd 2e3e
000001c0: b69f 06bf 1255 27bf 3148 9bbe f42f 08bf
000001d0: e5b2 013f af2a f53d 5d02 0a3f 14b9 a1be
000001e0: abb4 61be d531 32be acbd 1fbf d941 f9be
000001f0: 86f7 b73e 23b2 933e 4638 213e aa16 d0be
00000200: 1071 fcbe 2854 40be d495 95bd 6e59 29bf
00000210: e11a 79be 07cb d6be 5c8a b63e 66ed d2bd
00000220: b651 7bbe ee03 82bc 17a7 8dbe 008c 73be
00000230: 1ef3 d03d f507 143e d05e 05bf 6c74 54be
00000240: 5496 a33e 5568 00bf b936 283f 7a0b 5c3d
00000250: ee6f d7be e51e 343f 111a 55bf 59e1 aabe
00000260: c57f b73e 083e d43d a07f a83e 0e80 cfbd
00000270: f1ef 213f c5cd 363e b238 cebe ca72 1abd
00000280: 95be d53e 3ba5 b1bd bb67 38be 4300 02bf
00000290: 3abb bc3d 3b46 b5be 0ade 0dbf 0402 d43e
000002a0: 1d50 8d3d 73a5 c83e 5a1e a03e d270 533c
000002b0: a2eb cabe 553f 663d 9c3f febe eff6 fdbe
000002c0: bb54 8ebe 84d9 033f 0d03 613c c750 9a3e
000002d0: 0a63 e4be 2b99 22bf f143 3b3f a8c0 a7be
000002e0: e407 d5be b7be ce3e c4f8 d5be d1fc 953e
000002f0: 128e e83e 1c6a 03bf 5fc6 5a3e 532c 18be
00000300: 6c18 5abd 7ae7 683e 493f f8bc c9ab cfbd
00000310: 1a36 583e 3f3f 9cbe 39fd 863e e7ce 06be
00000320: 7cda e83d a902 afbe 4f8d a53e ddff c03e
00000330: 2049 3a3e 8e4c a8be 497c c43d 2469 803e
00000340: 0928 0a3f c06a 57bd ab42 3cbe 6445 ff3e
00000350: 50a0 d03e 4517 ebbe d037 eb3c 865a 7cbd
00000360: d5ba b1be c4f2 c33e 5aeb a4be 846f 1bbe
00000370: c0ec 1ebe f5fb 653e 6114 86be 22cc ad3e
00000380: c386 fabe fb3e 08be b8cb 97be f9a1 d0be
00000390: 702e 12bc a423 0fbe ba37 723e 585a fc3b
000003a0: 2094 d93e a34b 1bbe 85af 923e 3e18 54be
000003b0: 0dfe b13e 7c1d 44be 84e4 eebd b2e7 cbbc
000003c0: 18b6 993e 238e 19be 335b 013c 07f2 353e
000003d0: f0eb 073f 52b3 14bf e0cd 5c3f fb02 29be
000003e0: fa57 ab3c 32e1 2f3e 3976 5a3e 9a1c 22bf
000003f0: 19a8 6e3e 89ee c83e 552d 3abd aba4 0bbe
-0.25664946 -0.4855578 0.2158659 0.5962371 0.35247022 0.7122034 -0.1632932 -0.4013234
-0.3123008 0.1464097 -0.2569721 -0.35597938 -0.82410705 -0.46561638 -0.5160204 0.20803031
0.16296494 0.00047114582 -0.545052 0.21283126 0.36436158 0.24037725 -0.3494467 -0.23394607
-0.2726969 -0.20112757 -0.54037976 0.43854073 0.08957805 0.3206132 -0.12477458 0.5294627
0.1610546 -0.10086731 0.21672001 -0.5951986 0.25019965 0.081337415 0.4269275 -0.4857852
0.16843258 -0.06277798 0.14664155 0.023988921 -0.7451633 -0.4877234 0.25096795 0.56065917
-0.40292117 -0.2996631 -0.5548031 -0.025897726 0.12587194 -0.764694 0.14376377 -0.18534672
0.083301865 0.28733888 -0.63786036 -0.44491297 -0.23133406 -0.43973124 -0.21131048 -0.58985955
0.18329227 0.40820748 0.007087823 -0.5190173 -0.007786398 0.2562173 0.6357961 0.3626808
-0.025129376 -0.09302527 -0.4978925 0.18354884 0.26592484 0.17111376 -0.07508334 0.26441294
0.441833 0.5745326 -0.3919827 0.22974253 -0.5257918 -0.033368174 -0.5671828 0.452281
0.2862573 -0.06736692 0.48583174 -0.07880426 0.057163082 0.16061229 -0.22450134 0.62877023
-0.59712344 -0.19875066 0.3217348 -0.08608861 0.18469921 0.1112904 0.5976572 -0.13457629
0.012106599 -0.3723248 0.24491365 0.5341607 0.16401075 -0.30587924 -0.48949662 0.17064658
-0.5258745 -0.6536418 -0.30328515 -0.5319817 0.50663596 0.11971032 0.53909856 -0.31586516
-0.22041576 -0.17401822 -0.6239879 -0.4868305 0.35931033 0.28846845 0.15744123 -0.4064229
-0.4930501 -0.18782103 -0.07303968 -0.66152084 -0.2432666 -0.41951773 0.35652435 -0.102991864
-0.24542889 -0.015871014 -0.27666542 -0.23783875 0.10202621 0.1445616 -0.520978 -0.20747536
0.3195063 -0.501592 0.657085 0.053721882 -0.42077583 0.7035964 -0.832429 -0.33375052
0.35839668 0.10363394 0.3290987 -0.10131846 0.63256747 0.17851932 -0.4027763 -0.037707128
0.41746965 -0.08674093 -0.1800832 -0.5078165 0.09215398 -0.35405144 -0.5541693 0.41407788
0.06900046 0.39188728 0.31273156 0.012905316 -0.396329 0.056212742 -0.49657905 -0.49602458
-0.2779902 0.5150378 0.0137336375 0.30139753 -0.4460681 -0.63514966 0.73150545 -0.32764173
-0.41607583 0.4037988 -0.41791356 0.29294446 0.4542089 -0.51333785 0.21364735 -0.14860658
-0.053245947 0.22744551 -0.030303614 -0.10140187 0.21114388 -0.30517003 0.2636507 -0.13164864
0.113697976 -0.34181717 0.32334372 0.37695208 0.18191957 -0.32870907 0.09594018 0.25080216
0.5396734 -0.05259204 -0.18384807 0.49857628 0.4074731 -0.4591619 0.028713137 -0.061609767
-0.34712854 0.38271153 -0.3221081 -0.15179259 -0.1552 0.22459395 -0.26187423 0.33944803
-0.4893094 -0.13305275 -0.29647613 -0.40748575 -0.008922204 -0.1397844 0.2365407 0.0077011995
0.42495823 -0.15165572 0.28649536 -0.20712373 0.34764138 -0.19151872 -0.1166468 -0.024890754
0.3002174 -0.14995627 0.007895279 0.17768107 0.5309439 -0.5808612 0.8625164 -0.16505043
0.020915974 0.17175749 0.21334161 -0.6332489 0.23306312 0.39244488 -0.04545339 -0.13637035

arith.constant3 f4 [16]
00000000: b06e 423f ba72 cf3f 9031 83bf 7a3a 343f
00000010: 6c2b 8b3f 5e48 113f 8109 f6be 4b68 24bd
00000020: 37ee f03e 0abc fc3f 15b1 013f 3b09 66be
00000030: 0e84 553f ebfa e23d 5d7e 0840 cb47 703f
0.75950146 1.6206887 -1.02495 0.7040173 1.0872626 0.5675105 -0.48054126 -0.040138524
0.47056744 1.9744885 0.5066083 -0.22464459 0.83404624 0.11083015 2.1327126 0.9385955

arith.constant4 f4 [32, 64]
00000000: bb14 28c0 60f0 6cc0 a14a fdbf 79ee 43be
00000010: b86e 983f 95e5 0f40 50ad 05c0 530d 0ec0
00000020: cb75 f8bf 9b90 76bf 6eb2 16c1 1f87 933f
00000030: 7efe 3f40 05ae b4c0 d541 a3be 1739 10c0
00000040: 8f32 e840 9399 89bf dfd9 ff3f fa71 15c0
00000050: 2b71 d7bd da05 0140 e593 9ac0 09b4 01c0
00000060: ad40 ea3f e183 13bf d24a 0240 6dff 32c0
00000070: 8d4a c3be 6de6 5040 c664 7340 5cd2 92bf
00000080: 35ca 00c0 2689 3cc0 8fd5 2b3f 319d 56c0
00000090: 8cfb 0c3f 5d02 67bd e866 98c0 30da 03c1
000000a0: 5bd7 33c0 d885 59bf 64b9 5b40 552a f63f
000000b0: 6984 fe3f 2f4a fabf 2a11 8cbf 40b5 1ac0
000000c0: 7771 553e 167d ae3d 71fd edbf 7dbc 9e3f
000000d0: 67cb a9be ed1b 16c0 3542 803e 41a2 66c0
000000e0: e257 3d40 bc08 1d40 efa6 0641 5708 b7c0
000000f0: b58d 273e 758f 0340 5277 22c0 1ec4 5540
00000100: 7c34 a83a 5e69 7540 5c85 a8bf 7e32 2840
00000110: 9352 7040 df25 5ac0 90cb a23f 494b 25bf
00000120: 920b aa3f f3f0 11bf e3cf 8dc0 cf07 b2be
00000130: 8bde 2cbf a2cc a2c0 6cd4 1abf 1f1b 1640
00000140: aae1 f3bf 47ab 06bf d08a a2c0 3dc3 ef3f
00000150: cd2f 9a3e 02b7 e0c0 0dda 8540 a8be c8c0
00000160: b92d 9040 6b8d 5040 4825 c140 80af 643f
00000170: b45f 97c0 3dee 4b40 97a1 84c0 64ae 953e
00000180: 19bd f6c0 b390 8a40 6319 e6be 93b2 80c0
00000190: 2046 83bf b955 103e 7119 cfbe 720c 86bf
000001a0: a37c 65bf e24d 6ac0 a571 0dc0 ebaa 2640
000001b0: d9e3 24c0 4676 16c0 7082 1c40 d422 19c0
000001c0: 647b 8b3d e818 84c0 5d9c 2a40 2477 1d40
000001d0: 4bdb 2fc0 a6cf d4bd e751 0b3e 3fc3 4e40
000001e0: df29 bb3f dbfa b940 edbd 6440 c255 6fbf
000001f0: ecb9 27bf 14e2 8ec0 95a1 68c0 328d 5dbf
00000200: d258 f1bd 0e60 5a3e 9494 ca3f 5934 f9bd
00000210: dac0 6e40 5fcf 1c40 b68f 733f bb18 4240
00000220: 455d 87c0 96d7 dfc0 0d29 bd40 656e d0bf
00000230: 0ca7 79c0 9deb 8540 ba92 1abe 332a 1ec0
00000240: ab0d ba40 9ec2 2b3e abc1 3440 6a5f 983f
00000250: 6902 dbbf 45b7 c5bf 4b48 57c0 c027 99c0
00000260: c28c 6a3f 4c87 ed40 afaf 03c1 84a1 d9bf
00000270: 8e4f e2c0 2eb5 e3bf 7207 8940 dd90 21c0
00000280: 4b5f 93c0 7791 0c40 ba5a bd3f b4b6 2cc0
00000290: 25c6 06c0 583c 6a3f bf39 b640 daba 0641
000002a0: 2dbd 67c0 aa21 cb3f d8d8 a03e 5e81 e3bf
000002b0: 680b 9abc 0064 98bf 2fb0 dcbf 83f5 04c0
000002c0: ad67 d63f 8ba4 98c0 4630 1840 2387 83c0
000002d0: 81e0 10be 53db ff3f f111 00c0 b625 7aba
000002e0: 2bc4 1f40 35cd 04c0 cb60 bf40 1ed3 b540
000002f0: f581 933f 5e6e a5c0 4bc5 e240 8894 9140
00000300: 8b8b 3440 7796 0940 d036 993e cab5 65bf
00000310: d93f 73be 9cc5 ae40 0fd0 8e3e 8016 8840
00000320: 242b e140 f9fe bbbf 764d a03f fac3 933f
00000330: dd1f b93e 898e 1940 891b a5bf 5637 2dc0
00000340: ef96 02c1 5051 9f3f b8fc 94c0 f0d8 b23f
00000350: 58ed 0140 06ef 86c0 c867 a23e 7041 9040
00000360: e18b 3bc0 c68b 2ebf ddc5 3c40 8a4b e6be
00000370: 0be4 debe 6fa4 95bf 19e6 ddc0 4f55 2540
00000380: f29f 1a41 5cbe 0641 372d 913e b97f 0640
00000390: 9c38 b2bf 88b4 84bf 4526 d640 a216 8ac0
000003a0: 7540 16bf 1f59 39c0 bb3d c13e 1b3e 71c0
000003b0: 6885 1840 de51 253f ab4e 08c0 f814 e0bf
000003c0: a5a5 9f3f e9a6 62be f0e4 e7bf 9c6e 10c0
000003d0: fb37 3c40 fb22 a740 8019 2ebe 1fbd 1a40
000003e0: af8b f73d e982 dac0 a456 ce40 c380 aac0
000003f0: c742 af3f 074f 1c40 3c0a 5f40 f006 29bf
-2.6262653 -3.7021713 -1.97884 -0.19133939 1.1908789 2.2483876 -2.0887032 -2.2195632
-1.9410948 -0.963144 -9.418562 1.1525611 2.999908 -5.6462426 -0.31886163 -2.2534845
7.2561717 -1.0749992 1.9988364 -2.3350816 -0.10519632 2.0159822 -4.8305535 -2.0266135
1.8300987 -0.57623106 2.0358167 -2.79684 -0.38142815 3.264064 3.8030257 -1.1470447
-2.0123417 -2.9458709 0.6712274 -3.3533442 0.5507133 -0.05639874 -4.762562 -8.240768
-2.8100193 -0.84969854 3.4331903 1.9231669 1.9884158 -1.9553889 -1.0942738 -2.4173126
0.20844065 0.08519952 -1.8592969 1.2401272 -0.33162996 -2.3454545 0.25050512 -3.6036532
2.958489 2.453658 8.415755 -5.719768 0.1636265 2.055631 -2.5385327 3.340095
0.0012833024 3.834556 -1.3165698 2.6280818 3.75504 -3.4085615 1.2718372 -0.64568
1.3284781 -0.57008284 -4.431627 -0.34771582 -0.67527074 -5.0874796 -0.6048038 2.3454053
-1.9053242 -0.526051 -5.079445 1.8731457 0.30114594 -7.02234 4.1828675 -6.2732735
4.5055814 3.2586315 6.035801 0.8933029 -4.7304325 3.186416 -4.1447253 0.29234612
-7.710583 4.3301635 -0.44941244 -4.0217986 -1.0255775 0.140952 -0.40449098 -1.0472548
-0.89643306 -3.6610036 -2.2100613 2.604182 -2.5764067 -2.3509688 2.4454613 -2.3927507
0.06810644 -4.1280403 2.6657937 2.4603968 -2.7477596 -0.10391168 0.13605462 3.2306669
1.4622153 5.811872 3.5740921 -0.9349023 -0.6551807 -4.4650974 -3.6348622 -0.8654357
-0.11784519 0.21325704 1.5826592 -0.12168188 3.7305207 2.450157 0.9514116 3.0327594
-4.2301354 -6.9950666 5.911261 -1.628369 -3.9008207 4.1850114 -0.15095034 -2.4713256
5.8141685 0.1677346 2.8243206 1.1904118 -1.711011 -1.5446554 -3.3637874 -4.7861023
0.9162103 7.4227657 -8.2303915 -1.7002416 -7.0722113 -1.7789667 4.282159 -2.5244668
-4.6053824 2.1963785 1.4793313 -2.6986513 -2.1058438 0.9149833 5.694549 8.420618
-3.6209214 1.5869648 0.3141544 -1.7773855 -0.018804267 -1.1905518 -1.7241267 -2.0774848
1.6750389 -4.770086 2.3779464 -4.110246 -0.14148141 1.9988807 -2.001095 -0.00095423625
2.4963481 -2.0750248 5.9805655 5.682021 1.1524035 -5.1697226 7.0865836 4.5493813
2.821017 2.1498086 0.2992463 -0.89730513 -0.23754825 5.461622 0.2789311 4.2527466
7.036516 -1.4687186 1.2523639 1.1544182 0.36157122 2.3993247 -1.2899028 -2.7065024
-8.161849 1.244669 -4.6558495 1.3972454 2.0301113 -4.2166777 0.31719804 4.507988
-2.9304125 -0.6818203 2.9495766 -0.44979507 -0.43533358 -1.1690806 -6.934338 2.5833318
9.664049 8.421474 0.2835481 2.1015456 -1.3923526 -1.0367594 6.6921716 -4.315263
-0.58692104 -2.8960645 0.3774241 -3.7694156 2.3831425 0.64578044 -2.1298015 -1.7506399
1.2472426 -0.22133984 -1.8116741 -2.256751 2.9409168 5.22302 -0.17001915 2.417793
0.120871894 -6.8284802 6.4480762 -5.328218 1.3692254 2.4423234 3.4849997 -0.6602621

arith.constant5 f4 [32]
00000000: 1044 2240 67ca 8b3f e0d8 b03f bc4e 85bf
00000010: 0620 57c0 98da 5d3f 2b6d 13bc 2384 8ebe
00000020: c92a 5f40 46dc d13f a76b 54c0 72c7 fdbf
00000030: 0e8c 263f 9fc6 1f40 affd acbf 2c78 1fc0
00000040: 44c7 0cbe e615 9cbf 1f16 953f 730d 92bf
00000050: 571e 1cbf 7a5d 103f 16a6 05be 5ebf 96bf
00000060: 8fd5 89bf ea15 883e bcf4 d53f 27ca 0340
00000070: 6057 98bf 6e0d 0ec0 3ad7 90be 3fa8 8f3f
2.5354042 1.0921143 1.3816185 -1.0414653 -3.3613296 0.8666167 -0.008998196 -0.27835187
3.4869864 1.6395347 -3.3190706 -1.9826491 0.65057456 2.4964979 -1.3514918 -2.4917097
-0.13747889 -1.2194183 1.1647376 -1.1410354 -0.60983795 0.56392634 -0.13051638 -1.1777151
-1.0768298 0.2657922 1.6715312 2.0592134 -1.1901665 -2.2195697 -0.28289205 1.122322

arith.constant6 f4 [64]
00000000: ba22 bbbb 3873 63ba d031 97bc 846b a63c
00000010: ec4e 983c 0000 0000 6438 cb3c 0000 0000
00000020: 5e7d 5dbc 1adc 65bc 4e07 88bc 2fd9 993c
00000030: 35ef fe3a 38e2 95bb 8470 a73c ea1a d6bb
00000040: cbb8 d33c b43b 57bc 9a80 24bc 6fb8 e4bc
00000050: f8a8 88bb 4b63 de3c 0fd4 dbbc 8c8f a7bb
00000060: 1ce8 313d 0000 0000 0000 0000 5cad 2b3c
00000070: 97e4 a8bc 812d 03bc 0000 0000 e54b 8bbd
00000080: 69f7 1c3c 2e94 983c d0ef 9dbb 3549 89bc
00000090: f9db 153c db30 42bd 83f2 bf3c 0000 0000
000000a0: d16b 1abd edac 213d dc57 963c 8b83 963d
000000b0: 7009 66bc c857 7c3c 4302 8bbc 1d44 073d
000000c0: d601 8e3c 16a3 e2bc 38a2 f23b 5187 71bd
000000d0: ce0e 9c3b e501 8e3c 76f8 c9bb 14e7 08bd
000000e0: a7e8 0c3d 4586 1bbc 0000 0000 36a4 26bd
000000f0: e9a6 b2bd ca52 c03b b02b 363c 097b 77bc
-0.005710927 -0.0008676532 -0.01845637 0.02031494 0.01859232 0.0 0.024807163 0.0
-0.013518659 -0.014029527 -0.016605046 0.018780319 0.0019449951 -0.0045740865 0.020439394 -0.00653397
0.025844952 -0.013136793 -0.010040427 -0.027919976 -0.0041705333 0.027146956 -0.026834516 -0.0051135477
0.043434247 0.0 0.0 0.010478344 -0.020616813 -0.008006454 0.0 -0.06801585
0.009580472 0.018625345 -0.0048198476 -0.01675854 0.009146684 -0.047409873 0.023431068 0.0
-0.037700478 0.039471556 0.018352441 0.073493086 -0.014040336 0.015401788 -0.016968852 0.033023942
0.01733486 -0.027665656 0.007404592 -0.05896694 0.004762507 0.017334888 -0.006163652 -0.0334235
0.034401562 -0.009492462 0.0 -0.040683948 -0.08723242 0.005869244 0.011118814 -0.015105017

sequential_1_1/dense_4_1/MatMul f4 [64, 4]
00000000: e99a 213d 58a3 783e b8c0 55bd 12bf 0cbe
00000010: b078 85be 9332 5dbd cd71 1cbc f133 103e
00000020: 87a4 6a3e 6001 9e3d 863f 363e ae3e 7c3e
00000030: 2fc4 453e 0da9 3cbe 7755 a63d 84ae f4bd
00000040: ecfa 77bc bb64 173e ea63 b83d 748e 81be
00000050: 2f6e 09be 895c 8fbe 6477 09be e3e7 0cbe
00000060: 56c4 053d f777 6fbd 672d 873e b4d0 a5b9
00000070: f929 0fbe cb4c 21be f25a 74be 503b a9bd
00000080: bbcd dd3d d657 31be e262 94be 998b 66be
00000090: d626 8dbe a597 8abe e34f 1b3e e684 1c3e
000000a0: 2314 a33d c4f0 6abe a6de 9dbe bc52 083e
000000b0: 8687 56be 8197 aa3d 6472 723e f5fb 9b3e
000000c0: f265 aabd 877a 063d 6e82 c43d fd95 4e3e
000000d0: ed4e bb3c 89ed 6e3d afde 06be 18ab 4ebd
000000e0: cedc ce3d 07f0 083e 5990 ba3d 6472 8f3e
000000f0: a30a e6bd 7ad4 aa3c 5516 8a3e 50a7 ba3d
00000100: bf46 68be ad85 033d db82 bd3c 5ae9 77be
00000110: d7b0 8c3e 4567 813e 4e91 8d3d 738f 873e
00000120: 1bf2 8b3d ae16 1d3c ae92 85be bcf6 0b3e
00000130: db13 6e3e 3c34 aa3d c05d 573e 4905 f0bd
00000140: 008e 9a3e dea6 17be eee2 a63d cbcb 1d3e
00000150: 0acf 93be 7835 7fbe 848c 2b3e 7242 783d
00000160: cd7e d43d 2d99 20be fc52 4ebe 9b7a c83d
00000170: 7b18 9d3d dad3 9dbe 05dc 2fbd 4f71 f23d
00000180: 5959 2f3e 2c61 c1bd 8d32 4abe b107 62be
00000190: 7878 56bd c0b5 0d3c d960 95be a183 8ebe
000001a0: 7021 9abc 600c 223c b439 2dbe a1d5 43be
000001b0: d082 f8bd 8231 2dbe 6e3e 8b3e 4fc2 c93d
000001c0: 78fc 15be 9033 6abe 62cc 82be 459f a13d
000001d0: 4331 b3bd 2c30 83bd 660e 803e fd63 96be
000001e0: f6d3 77be ebe0 89be 6489 86be b063 69be
000001f0: b27b 783e 4502 80be 6dff 5f3e a05d 4abc
00000200: 361a 803d 22ae 133d 7d18 94be eaae 8bbe
00000210: 7a4d c1bd 386a 263e 1de1 7ebe 25b4 29be
00000220: dab5 da3d eafd 05bd ffe9 8c3e b1b2 edbd
00000230: 95b5 bcbd d94c 1cbe e846 5c3e 2809 3fbe
00000240: 4151 65bd 2827 89bd 92b5 373c 6757 2f3e
00000250: d8ca 4d3e 2ad6 a73e 95c5 873d ec86 5abe
00000260: 23b3 a5be c6e1 b23c 47a5 9bbd ebbf 983d
00000270: 2a63 8cbe 6ec6 08be 29da 28be 00d3 9e3c
00000280: 7645 1c3d d97a 823e bdbc 57be b606 32bd
00000290: 2b9b 313e 9b5a 49be 4586 10be 9c6e 203e
000002a0: e69c 123e 5cd4 82be 1dc0 4e3e 8f11 51be
000002b0: c33b 3dbe 1e9f 2ebe d377 723e e308 07be
000002c0: a459 223d afe2 81be 79a5 5f3e 9f12 223e
000002d0: c945 ac3e 0581 b53d 06ef b6bd 8ca3 843d
000002e0: d49a 24be c98f 643e 24de a83d 8149 ef3d
000002f0: 1711 673c 9ed6 c0bd 0744 a4bd 79fa 633e
00000300: 2d1b e63d 90d2 403e b91a b33d bdf3 52be
00000310: c80c 463e b5c9 a2be 0713 a6be fa2b 15be
00000320: dd01 cb3d 3b40 4a3d 4ee0 0fbd 8f4d a73d
00000330: 83c2 4d3e aa5c 24be e107 cfbd d723 9d3d
00000340: b047 2c3e a330 1e3c 1e94 5fbc 3fd7 503d
00000350: 8f5b 7a3d 27ba 55be f0fa 183e b37a 6fbe
00000360: 4a80 d43d 4120 8e3e 17ea c13d 1c3f 333e
00000370: b22e c5bd 2eb2 a1be 7d86 2f3e 135f 693e
00000380: a65f 8cbe 0c38 86bd fc24 953e c7ff 1dbe
00000390: 88d4 393d eb00 90be daf7 313d fdef 9fbd
000003a0: 149d 48be b9c4 97be b809 b43d 880d 91be
000003b0: 12b3 e23b 44a6 28bd 5676 d4bd 1bb7 653d
000003c0: 1efb 4b3e c485 523e ac8c 2abe c988 f63d
000003d0: a507 98bc 952d 63be 8e24 123e 1af4 8a3d
000003e0: bba9 c4bb 97e3 f53d 291f ccbd 32dd 2bbe
000003f0: c524 dc3d e49b a4bd 2440 303e daa2 5dbe
0.039454374 0.2428106 -0.052185744 -0.13744763 -0.2606864 -0.05400331 -0.009548617 0.14082314
0.22914325 0.07715106 0.1779767 0.24633285 0.1931312 -0.18423863 0.0812177 -0.11947349
-0.015135508 0.1478452 0.09003432 -0.25303996 -0.13420938 -0.28000286 -0.1342445 -0.13760333
0.032657944 -0.058464017 0.26401827 -0.00031626748 -0.13980855 -0.1575195 -0.23862818 -0.08263266
0.108302556 -0.17318663 -0.28981692 -0.2251419 -0.27568692 -0.2706882 0.15167193 0.15285072
0.07962825 -0.22943407 -0.3083393 0.1331281 -0.20950136 0.08329678 0.23676449 0.30465665
-0.08320226 0.032831695 0.0959519 0.20174403 0.022864783 0.058332 -0.13170885 -0.050456136
0.10100709 0.13372813 0.091095634 0.2801696 -0.112324975 0.02085327 0.26970163 0.091139436
-0.22683237 0.032109905 0.023133686 -0.2421011 0.27478668 0.252741 0.0691248 0.2647663
0.06833287 0.009587927 -0.2608847 0.1366834 0.23249762 0.08310744 0.21031857 -0.11719758
0.30186462 -0.14809749 0.08148752 0.15409772 -0.28868896 -0.2492274 0.16752821 0.060610242
0.10375748 -0.15683432 -0.20148844 0.0978901 0.07670685 -0.30825692 -0.042934436 0.11838018
0.17123927 -0.09442362 -0.19745846 -0.22073247 -0.05236098 0.00864929 -0.2917545 -0.278348
-0.018814772 0.009890646 -0.16916543 -0.19124462 -0.121343255 -0.16913417 0.27196068 0.098515145
-0.1464709 -0.22871232 -0.25546557 0.078917064 -0.0874963 -0.064056724 0.25010985 -0.2937316
-0.2420195 -0.2692941 -0.26276696 -0.22791934 0.24265936 -0.25001732 0.21874781 -0.0123514235
0.06254999 0.036054738 -0.28924933 -0.27281886 -0.094386056 0.16251457 -0.24890561 -0.16572626
0.10679217 -0.032712854 0.27522275 -0.11606348 -0.092143215 -0.1526369 0.21511424 -0.18655837
-0.055985693 -0.066969216 0.011212723 0.17123185 0.2009691 0.32780582 0.06629483 -0.21340531
-0.32363233 0.021836173 -0.075998835 0.074584804 -0.27419406 -0.13356945 -0.16489471 0.019387722
0.03815218 0.2548435 -0.21068092 -0.04346343 0.17344348 -0.1966347 -0.1411372 0.15667194
0.14317665 -0.25552642 0.20190473 -0.20416854 -0.18479829 -0.17052886 0.23678522 -0.13186984
0.03963627 -0.25368258 0.21840467 0.15827416 0.33646992 0.08862499 -0.08932309 0.064765066
-0.16074687 0.22320475 0.08245495 0.11683942 0.014103196 -0.09415935 -0.08020788 0.22263516
0.11235652 0.18830323 0.08745331 -0.20600791 0.19340813 -0.31794515 -0.32436392 -0.14567557
0.09912465 0.04937766 -0.035126023 0.0816909 0.20093732 -0.16050974 -0.10108925 0.076728515
0.16824222 0.009655151 -0.013646154 0.050986525 0.061122473 -0.20871793 0.14939475 -0.2338665
0.10376032 0.27758983 0.09468477 0.17504543 -0.09628047 -0.31581253 0.17141147 0.22790174
-0.27416724 -0.06553659 0.2912978 -0.15429603 0.0453687 -0.281257 0.04344926 -0.07809446
-0.1959117 -0.29642275 0.08790916 -0.28330636 0.0069183195 -0.04117419 -0.10374133 0.056082826
0.19920012 0.2055884 -0.16655225 0.120378084 -0.018558333 -0.22185357 0.14271757 0.0678484
-0.0060016788 0.120063 -0.09966881 -0.16783598 0.10749201 -0.08037546 0.17211968 -0.21644154
